examples/BallChase/BallChase.onnx (onnx, 24525 bytes, 6 tensors)

mlp_extractor.policy_net.0.weight f4 [64, 21]
000000 dc af ac be 68 80 71 bc 03 4f 89 3e 7a 3c db 3d
       -0.3372792 -0.014740087 0.26818094 0.10704894
000010 30 d6 aa 3e 4e 3b 26 3e 3e fc 46 bc 7b 14 cf 3e
       0.33366537 0.1623356 -0.0121451 0.40445313
000020 8f fa e6 3e 63 d6 25 3d c4 0b 4c bc eb 7a c4 3d
       0.45113036 0.04048766 -0.012453977 0.09593757
000030 81 50 92 3e 3f ba e3 3c a2 db 0b be 4a 32 6f be
       0.28577045 0.02779877 -0.13658002 -0.23359028
000040 02 bb 9a be dd 80 8e bd be 21 b7 bd f2 a0 fb 3d
       -0.302208 -0.069581725 -0.08941983 0.12286557
000050 0a eb 0b bd fb 22 11 3d 74 80 3d 3e 97 be 1d bd
       -0.034159698 0.03543375 0.18506032 -0.03851184
000060 22 84 51 3d ac 43 0b 3f ff 69 cb 3c 71 77 fb 3e
       0.051151402 0.54400134 0.024830816 0.49114564
000070 48 23 81 3e 9d 8a 75 3e dd 7d 7f be de 18 a4 3d
       0.2522223 0.23978658 -0.24950357 0.080125555
000080 40 39 b3 bd d3 2a 81 be f0 c3 0d 3e 61 9a 5b be
       -0.08751154 -0.25227985 0.13844275 -0.2144561
000090 5f 70 52 bd 4b 00 c9 bd 54 ce 19 3c 56 fb ca be
       -0.051376697 -0.09814509 0.009387571 -0.3964488
0000a0 5e 10 99 be c4 19 5d 3e 66 c2 c0 bd cc b1 69 bd
       -0.298953 0.2159186 -0.094120786 -0.057054326
0000b0 e9 5a 9c be e4 36 b3 3d f9 a9 3a be 02 46 42 be
       -0.3053811 0.08750704 -0.18228902 -0.18972018
0000c0 41 7f 1f 3d 3f b5 3e be 93 11 94 bd 46 8f f8 3d
       0.03893972 -0.18623827 -0.072299145 0.12136702
0000d0 13 5e d1 3e c2 4a c5 3d 1a 03 8b 3e 77 94 c5 bd
       0.40892085 0.096333995 0.27150804 -0.09647458
0000e0 6d e4 ab be 5d b0 c1 3c 70 50 bd 3d 88 08 4f 3e
       -0.33572713 0.023643667 0.09243858 0.20218098
0000f0 a3 0e f1 3c 2c ea a5 be 63 3a b8 be 52 12 19 bc
       0.029425925 -0.3240522 -0.35982046 -0.009342747
000100 31 64 07 3d d7 ab ba 3e db 3d f8 3e 13 6f ff 3e
       0.033054534 0.36459228 0.48484692 0.4988943
000110 06 41 36 3d 59 af b4 bd 88 f3 33 3f 81 4d 83 3e
       0.044495605 -0.088225074 0.70293474 0.25645068
000120 2d 72 50 3e a9 da 3b 3e 66 08 c3 bc e4 bb 99 bd
       0.20356055 0.18345131 -0.023807716 -0.075065404
000130 2c c4 73 3b 90 10 7b be 15 7f 81 be 3e 79 32 bd
       0.0037195785 -0.24518037 -0.25292268 -0.043572657
000140 8b 05 60 bd bf cb d2 3c b6 46 1b be 1d a9 1c 3d
       -0.054692786 0.02573192 -0.15163693 0.038247216
000150 a6 31 a4 3d 47 67 70 bd ca ec 38 bd 7e 72 cd bd
       0.08017282 -0.058692243 -0.045147695 -0.10031603
000160 8f 4a d5 3e 6a c8 21 39 01 67 4d 3e d0 33 bc 3e
       0.41658446 0.00015428817 0.20058824 0.3675828
000170 e7 58 6f 3e 5f ea 30 be 2f 03 c6 bd 43 90 74 be
       0.23373757 -0.17276905 -0.09668576 -0.23883156
000180 30 e9 92 be 27 89 7d 3d df 28 2c bf e5 88 e4 be
       -0.28693533 0.061898377 -0.67249864 -0.44635692
000190 d8 6a 80 3e 5c 31 74 bd f7 3c f7 3d 05 f5 f4 3d
       0.25081515 -0.059617385 0.12072175 0.11960796
0001a0 53 05 c6 bb 6e ca c8 3d 69 b2 f5 bd f5 3e c2 be
       -0.006043115 0.098042354 -0.1199692 -0.37938657
0001b0 c4 64 18 bd 41 b6 70 be 31 39 6d be e4 f5 3d 3e
       -0.037205473 -0.23507024 -0.23166348 0.18550831
0001c0 99 f4 8e bd e6 8e f8 3d 68 b5 6c bd ce bb ef 3d
       -0.06980247 0.12136631 -0.05779019 0.11705743
0001d0 89 64 93 bc 49 a7 9a be e7 61 77 3e d8 1e 05 bf
       -0.017992275 -0.30205753 0.2415844 -0.5200019
0001e0 c5 22 ce bd 8f 3f c8 3c a1 62 44 be 0b 81 ca 3e
       -0.100652255 0.02444437 -0.19178249 0.39551577
0001f0 65 ab 11 3c d7 3a 0c be 57 95 31 3e b6 8f 28 be
       0.008890961 -0.1369432 0.17342125 -0.16461071
000200 a2 d8 46 3e a4 89 a5 3d cf bb ad 3e b1 c3 f3 bd
       0.19418576 0.080828935 0.3393235 -0.119025595
000210 14 38 fc 3c c9 4a b2 3c 6a 36 47 3e f2 62 2d bc
       0.030788459 0.021764176 0.19454351 -0.010582672
000220 7c 95 e9 3e 97 d6 b2 3c a5 03 f2 3c c8 1d 01 3f
       0.4562186 0.02183084 0.029542753 0.5043607
000230 f9 93 80 3e 2a df 05 bd c9 29 41 3d f6 01 37 3e
       0.25112894 -0.03268353 0.04715899 0.17871842
000240 a0 c9 72 be e2 e0 ae bd 03 e0 a2 3e d4 d6 37 3e
       -0.23709726 -0.08538987 0.31811532 0.17953044
000250 8a b4 90 bd e7 fa 8d bd 73 e8 a3 be 2b 63 8d be
       -0.07065685 -0.069326214 -0.32013282 -0.27614722
000260 29 21 59 be 2a fc 7d be 98 3f 66 be e1 c5 c4 bd
       -0.21204056 -0.24803224 -0.22485197 -0.09608055
000270 41 14 ea bd fb 44 88 be 14 dc 15 be 0f 09 2b 3d
       -0.114296444 -0.26615128 -0.14634734 0.041756686
000280 de 0a 5b bd 81 82 81 3e a2 cb 88 3e 6c 9c 0b 3e
       -0.05347716 0.2529488 0.2671786 0.13633889
000290 e0 3b 09 3e 2a 86 df bd 92 9f 3c 3e 4d 8e a2 be
       0.13401747 -0.10914262 0.18420246 -0.31749192
0002a0 d8 9e 15 3e 77 ef 8d bd 5a 93 c5 3d c1 07 27 3e
       0.14611375 -0.0693044 0.09647246 0.16311552
0002b0 86 65 64 3e be 90 eb bd be 49 c3 3e d1 db 11 bd
       0.22304353 -0.11502217 0.38142198 -0.035610024
0002c0 55 68 80 bc 92 dd 84 3e 99 8a 05 3f 20 4e 8c 3d
       -0.01567475 0.25950295 0.5216461 0.06850839
0002d0 41 54 82 be 7c 8c ae 3e 4a 15 5a bc 7f 8e 9d be
       -0.25454906 0.34091556 -0.01331074 -0.30772778
0002e0 75 c3 3d 3e b3 51 5e 3d ac b7 a1 bd 5a 88 1e 3e
       0.18531592 0.054277133 -0.07896361 0.15481701
0002f0 47 98 bc 3c 51 d7 96 3d c3 47 f2 bd 1f d6 38 be
       0.02302183 0.07365287 -0.11830094 -0.1805043
000300 83 1f cd bd 14 1f e5 be 31 35 53 be 18 07 d3 bc
       -0.10015776 -0.44750273 -0.2062576 -0.025760219
000310 33 b2 a3 be 70 12 89 be 72 0e 41 3e 7c ab 1c 3e
       -0.31971893 -0.2677188 0.18853167 0.15299791
000320 92 7f 6d 3e 81 e4 4d bd f9 bd a3 bd 40 33 9a 3e
       0.23193195 -0.050266746 -0.07995219 0.30117226
000330 65 c5 d6 3e 98 9f c0 ba 78 8d 7d 3d b6 63 3c be
       0.41947475 -0.0014696 0.061902493 -0.18397412
000340 9d 9c 97 3e 95 46 e8 bd 5d 96 82 3e 1a 03 45 3c
       0.29611674 -0.113415875 0.25505343 0.012024665
000350 3c 30 5d bd 9c 54 e3 3c e3 b5 dc bd 9a 5f 02 3e
       -0.054001078 0.027750306 -0.1077688 0.12731782
000360 e7 79 56 be 1a c0 3b 3f 42 94 97 3d 8a 8b 1a be
       -0.2094494 0.7334 0.07401325 -0.15092292
000370 3c b7 31 3e ce 7b ac 3d 28 c8 09 3c bb f0 3f 3e
       0.17355055 0.08422051 0.008409537 0.18744175
000380 6d 2c 81 bc dd 59 df 3d df f0 14 be 65 2d e6 3c
       -0.015768254 0.10905812 -0.1454501 0.028097818
000390 8f d7 13 3e a4 b2 f5 bd c5 3d 89 bd da b9 68 3d
       0.14437698 -0.119969636 -0.06701235 0.056817867
0003a0 92 82 8c be 50 62 34 3e 5b 56 98 3c 5c be 25 be
       -0.27443367 0.17615628 0.018595865 -0.16185898
0003b0 2d 1d 51 3e 03 f9 ac 3d da d2 e7 3e 3d 95 a0 3e
       0.20421286 0.08445933 0.45278054 0.3136386
0003c0 b2 6b 27 be ad ad 1f bd 16 6b a7 bc d3 b9 3d 3e
       -0.16349676 -0.03898399 -0.020436805 0.18527918
0003d0 e6 5b 26 3e b7 f4 c5 bd 20 e8 93 bd da 0b 51 3e
       0.16245994 -0.09665816 -0.07222009 0.20414677
0003e0 7a e0 a0 bd d1 58 d7 3c 32 99 5d 3e c0 98 48 3e
       -0.078553155 0.026287468 0.2164047 0.1958952
0003f0 42 5d 19 3e 93 b6 92 be 2f da ab 3e 77 11 ad bd
       0.14976981 -0.28654918 0.33564898 -0.08450597

mlp_extractor.policy_net.0.bias f4 [64]
000000 f6 c6 40 3d 44 85 8f bc eb b9 81 3d f3 8e a9 3d
       0.047064744 -0.0175196 0.06334289 0.082792185
000010 4d 8a 85 bd a3 ae 5f 3d 8e 6c f3 3c 8d ce b1 bd
       -0.065205194 0.054609906 0.029714849 -0.086819746
000020 ea f1 3b 3b 32 60 fc b9 91 94 c7 3a 99 ed ad 3d
       0.0028678128 -0.00048136857 0.0015226771 0.08492584
000030 69 e7 5e bc 8f 5b 8d bd d2 de 86 3d cb b8 a9 bc
       -0.013604977 -0.06902229 0.06585468 -0.020717999
000040 b5 03 60 bd d1 b5 f7 3c 1c ea b7 3d 3e b1 b0 3d
       -0.054691035 0.030238064 0.089802 0.08627556
000050 47 8a d5 bc 77 64 22 be 0f 8b ce 3d d1 0c 6a bd
       -0.026066912 -0.15858637 0.10085117 -0.05714113
000060 17 36 e9 3d 18 ad 34 3d 15 86 c1 3d df 3b 1e 3e
       0.1138727 0.044110388 0.09449402 0.15452527
000070 41 cd cd bd d5 e4 5a bc c0 59 93 3d 9f ea 74 3d
       -0.10048915 -0.013360222 0.07194853 0.059794065
000080 25 47 6a 3d 69 25 bf bd d3 74 96 bd e2 e7 a7 3d
       0.057196755 -0.09333307 -0.07346501 0.08198525
000090 d2 30 d6 bd 0c 2e 76 bd 02 ec 1a 3d b8 c2 bf 3d
       -0.104585305 -0.060102507 0.03782273 0.093633115
0000a0 8a 54 50 3d 86 8b 78 3d 41 eb a6 3d 52 ae 9f bd
       0.050861873 0.060679935 0.0815034 -0.07796921
0000b0 d2 1b c7 bd 21 b8 b3 3d 17 64 0c 3e 85 f4 02 3e
       -0.09722103 0.08775354 0.13710056 0.1278859
0000c0 81 a7 91 bd 80 df 19 3d 76 f9 09 3e e0 f4 93 bd
       -0.07112027 0.03756666 0.13474068 -0.072244406
0000d0 31 4c c0 bd 3a 3a 03 bd 79 85 88 3d 41 8b 91 bd
       -0.09389532 -0.03203795 0.06666083 -0.07106639
0000e0 af 9a 41 bd a7 68 24 3c e8 95 b1 bd 73 e7 c5 3d
       -0.04726666 0.010034717 -0.086711705 0.09663286
0000f0 61 b0 04 bd 7f 9d c0 bd f5 67 99 3d 53 be 72 bd
       -0.03239477 -0.0940504 0.07490531 -0.05926354

mlp_extractor.policy_net.2.weight f4 [64, 64]
000000 e6 5c 2e 3b d4 b7 9a be 49 57 44 3e 82 95 2d 3e
       0.0026605665 -0.30218375 0.19173922 0.16951564
000010 cd 59 25 3e e4 29 1d 3c a3 92 f6 bd 79 4d 30 3e
       0.16147538 0.009592507 -0.120396875 0.17217053
000020 f3 4e 71 be a4 08 cd 3e c9 ae 72 be e8 e6 a3 be
       -0.23565273 0.40045655 -0.23699488 -0.32012105
000030 1b f6 fd b9 cd 36 29 3e 49 99 9d be 05 3a e3 3d
       -0.00048439283 0.16524811 -0.3078101 0.11095051
000040 6a 5f 2b 3e c9 68 8f be 6e 1d b8 bc 22 8a 21 3e
       0.16735616 -0.28009632 -0.02247497 0.1577535
000050 88 30 e7 3e 7d 2a 9a 3e 7c 9d 74 be ab 91 16 3e
       0.45154214 0.3011054 -0.238882 0.14704005
000060 47 5d f8 be 2f ec 8f be fa 68 80 bb 60 28 4b be
       -0.48508665 -0.2810988 -0.003918764 -0.1983962
000070 7b 56 c7 3e 77 94 38 bd 9a fd 6f bd f3 f0 66 bd
       0.38933167 -0.045063462 -0.058591463 -0.05638213
000080 52 1b e2 bd b6 42 3a 3d db 16 5e 3e 45 0f 12 be
       -0.11040367 0.045473777 0.21688406 -0.14263637
000090 c7 e0 95 3d 32 43 a1 3e cf c0 73 3d 13 a9 73 be
       0.073182635 0.31496578 0.05951005 -0.23794965
0000a0 e3 50 4b be b4 50 fd bd c4 ae aa 3d cd b8 1d bd
       -0.19855075 -0.123689085 0.08334115 -0.038506318
0000b0 9b cc 9f bd 12 10 b9 3d 89 b4 58 bd 81 fd 8c 3e
       -0.07802697 0.09036268 -0.052906547 0.27537158
0000c0 a3 0c 2d 3e 02 2d 95 be 39 9b 8b be ea 83 00 3d
       0.16899352 -0.291359 -0.27266863 0.031375803
0000d0 8d 48 1f 3d 9f ce 55 3e e4 22 61 3e 33 24 a7 3d
       0.03888755 0.20879601 0.21985966 0.08161201
0000e0 8f 76 cf 3d 6b e1 00 3e c2 1d 6d 3c bd 40 51 be
       0.10130035 0.1258599 0.014472427 -0.20434852
0000f0 73 88 b8 3c 73 29 c8 bd ca 2f 3f bd 02 66 78 be
       0.022526002 -0.09773531 -0.046676435 -0.24257663
000100 6f 8e aa 3e a5 b3 a3 3e 08 25 be bd c5 51 98 3e
       0.33311793 0.31972995 -0.09284407 0.29749885
000110 a8 64 49 3d 8c da 38 be 3f 8c 81 bd dd 68 88 be
       0.04916826 -0.18052119 -0.06325578 -0.26642504
000120 f7 e8 24 be 6d 32 62 3d 1a d1 ad 3e a6 3d ed bd
       -0.16104494 0.05522387 0.33948594 -0.11584024
000130 e0 bf 88 3d b4 7a 37 be 46 25 78 3e 2c 2b 16 be
       0.06677222 -0.17917901 0.24232969 -0.14664906
000140 3b a5 88 be cf b1 db 3d 07 66 71 3e f2 01 20 3e
       -0.2668856 0.10727274 0.23574077 0.15625742
000150 10 8f 47 bc 3f d0 8f be 3a 0a 39 3e 93 22 62 3e
       -0.012180105 -0.28088567 0.18070307 0.22083502
000160 7d d5 74 be 9c 14 e5 3e bf ac 36 3e c0 26 a1 3e
       -0.23909564 0.44742286 0.17839335 0.31474876
000170 b1 d6 9a be 8e e2 0a 3b 32 8b 92 3e 0b 36 c0 3e
       -0.30241922 0.0021192166 0.28621823 0.37541232
000180 97 26 38 bd b6 3c 5d 3d 8b 42 16 3c f1 33 b8 3e
       -0.044958677 0.054012977 0.0091711385 0.35977128
000190 04 e5 f1 bd 05 a4 19 be 11 36 af 3e 26 51 b4 3e
       -0.118112594 -0.15003975 0.34220937 0.3521816
0001a0 c0 cc 00 3e b0 d9 11 3e b1 d3 5f 3e 55 c7 b7 be
       0.12578106 0.14243197 0.21858098 -0.35894266
0001b0 c1 e8 6c bd aa 16 21 3e 37 40 8f 3e 97 e4 8d 3e
       -0.05783916 0.15731302 0.2797868 0.27713463
0001c0 32 32 2c 3e d2 10 ed bd 9d 84 fa 3d b1 01 72 be
       0.16816023 -0.11575474 0.12232325 -0.23633458
0001d0 e7 f2 44 3e ff 4b 85 bd 75 e7 ad 3d b8 a4 85 3e
       0.19233285 -0.06508636 0.084914126 0.26102233
0001e0 5e 1e 08 3e 79 60 f4 3d ff 95 30 3d b5 93 e5 3e
       0.13292834 0.11932463 0.043111797 0.44839254
0001f0 72 af 9f bc b7 0d 9a 3e 73 5a 7e 3d 62 cf e3 3e
       -0.019492839 0.3008859 0.062097978 0.44494158
000200 00 b7 0b be 6d d1 34 be 9e 39 17 be e5 5f bb bd
       -0.13644028 -0.17658015 -0.14768073 -0.0914915
000210 60 43 97 bd 8b 6f be 3d b1 e1 a7 be 06 df 80 39
       -0.07385898 0.09298619 -0.32789376 0.00024580228
000220 df a7 96 3e a0 f0 25 3d 3c 36 4e be f6 07 22 bd
       0.2942495 0.04051268 -0.20137876 -0.039558373
000230 19 76 30 be f5 8e 9c 3e d6 10 66 be 29 28 9a 3d
       -0.1723255 0.30577818 -0.2246736 0.07527191
000240 6d 9f 88 3e 60 2f 64 bb be b1 e4 bd 6a e3 e6 bd
       0.26684132 -0.0034818277 -0.11166714 -0.112738445
000250 36 b7 6d be 4f c3 6f be 0a 99 f9 be ed b8 b7 3e
       -0.2321442 -0.23414348 -0.48749572 0.35883275
000260 a3 54 61 3d 41 ad 85 3e 3c a5 5f 3d d3 8c cc 3c
       0.055012356 0.26108745 0.05460094 0.024969494
000270 d2 ac c5 3c 3a 8e c7 3d 72 a7 0f 3c 82 07 8a be
       0.024130259 0.097439244 0.008767949 -0.26958853
000280 53 94 14 bf 4e 8e bb bd c4 9b 18 be 9f 5d 0a be
       -0.58038825 -0.09158002 -0.1490317 -0.13512276
000290 3d 19 8c 3e 85 13 e7 3d 5b 96 26 3d 53 d9 12 bf
       0.27363005 0.1128302 0.040670734 -0.5736286
0002a0 32 f9 e3 3d 27 91 da be 92 5a a3 be 06 33 a8 3d
       0.111315146 -0.42688867 -0.31905037 0.08212857
0002b0 7b 04 80 3e f0 2b ac bd bf bc a3 3e 63 b3 d5 3a
       0.25003418 -0.08406818 0.3197994 0.0016304072
0002c0 56 e5 be 3e 3d c2 36 be 93 1c 4c 3e ee 10 56 be
       0.37284344 -0.17847534 0.19932775 -0.20904896
0002d0 f0 a4 28 bc a0 ac b7 3d 9f 81 88 3d c1 f3 10 3e
       -0.01029323 0.089684725 0.06665348 0.14155485
0002e0 58 15 fa bc c6 0c ac bc 81 70 03 be d4 4a 35 3d
       -0.030527756 -0.021002185 -0.12835886 0.044260815
0002f0 37 3d a5 bd 31 f8 3c 3e 46 c8 02 be f3 d1 d1 bd
       -0.080683164 0.18454053 -0.12771711 -0.10245123
000300 d7 fc d5 3c 2d 68 56 bd f9 db 37 be ef 7a 8c 3e
       0.02612154 -0.052345444 -0.17955007 0.2743754
000310 59 e0 c8 3e 65 12 c0 3d 62 60 95 be cd 19 27 be
       0.39233664 0.093785085 -0.29175097 -0.16318436
000320 6f fe a2 be 6e 17 1f be 21 98 9e bd 21 be 69 be
       -0.31834742 -0.15536281 -0.0774386 -0.22826435
000330 9c d0 06 be 8b 72 3b be d7 a8 2f 3e fd aa 62 bc
       -0.13165516 -0.18305413 0.17154251 -0.013834712
000340 a8 f9 8f be 66 e4 52 be c8 79 1e 3e a3 93 30 be
       -0.2812016 -0.2059494 0.15476143 -0.17243819
000350 76 33 a6 bd 4f 3e 23 bc 46 22 87 3d 85 09 30 3e
       -0.08115284 -0.009963586 0.06598334 0.17191131
000360 bc 5a 98 bd 00 e8 a6 3e 7d a5 50 be 30 8c 53 bd
       -0.07439181 0.32598877 -0.20375629 -0.051647365
000370 2d 51 92 3c e0 78 ab bd 39 6b 55 3e 4f 20 20 bb
       0.017860973 -0.083726645 0.20841683 -0.002443332
000380 e9 2a 8f 3e 87 95 9d be c0 b9 b2 be c2 74 10 be
       0.27962425 -0.30778143 -0.3490734 -0.1410704
000390 3d 46 b8 be 33 64 7f be 21 28 2b 3e 92 a4 e6 3e
       -0.35991088 -0.24940567 0.16714527 0.45047432
0003a0 27 51 b6 3e f5 86 cf bc 9c eb 9c 3e 04 4f 88 3d
       0.3560879 -0.025332907 0.30648506 0.06655696
0003b0 50 48 e0 bc 81 58 46 3d c7 35 5a bd 12 37 75 3e
       -0.027378231 0.048424248 -0.053273942 0.23946789
0003c0 2e e4 a0 be cc d3 69 bd 47 64 db 3d ae b8 0a 3e
       -0.31424087 -0.05708675 0.10712486 0.13547012
0003d0 91 d1 52 be 0b 5d df be ec 1b 5b 3e 4b dc 62 3e
       -0.20587756 -0.43625674 0.2139737 0.22154348
0003e0 01 55 ab 38 93 42 27 be 49 d9 4a be 40 16 fa bd
       8.1697486e-05 -0.1633399 -0.1980945 -0.12211275
0003f0 9b 0c 24 be 5b 0b 06 3e b8 98 88 3d fa d2 a5 be
       -0.16020434 0.1309027 0.06669754 -0.32387525

mlp_extractor.policy_net.2.bias f4 [64]
000000 8b 2d e7 bd f6 6d 83 3d 4b d0 23 bd 31 7f 5f 3d
       -0.112879835 0.06417458 -0.039993566 0.05456466
000010 80 32 0c 3c 31 23 a9 3d da 88 49 3d 05 4e d0 bd
       0.008556962 0.08258665 0.049202777 -0.10171131
000020 27 b6 7e bd 22 2e 62 bd b3 4f a6 bc ad fe 0f be
       -0.062185433 -0.055219777 -0.020301675 -0.14061995
000030 40 56 e1 3c 12 9d c8 3d a1 74 09 bd a3 82 dc bd
       0.027506948 0.09795584 -0.03355849 -0.107671045
000040 26 62 96 3d 70 57 04 3e d3 4f 19 3d 51 bc 9a bd
       0.07342939 0.1292398 0.037429642 -0.0755545
000050 f2 51 97 bc a9 3f 05 be 71 3b 7f bd 3c ea 9b 3d
       -0.018471692 -0.13012566 -0.062312547 0.07613036
000060 96 70 f0 bd e3 9a 87 3d 24 7b 91 bc 2c c3 8a bd
       -0.11740224 0.06621339 -0.017758913 -0.06775507
000070 19 4b b0 bd 4d ae ab bd 92 38 ab bd 46 2e b0 3d
       -0.08608074 -0.083828546 -0.08360399 0.08602576
000080 e4 08 98 3d ca d4 03 be d2 6a 9d 3d 52 1c 3e 3e
       0.07423571 -0.12874141 0.0768639 0.18565491
000090 44 79 c9 3d 02 b1 c7 bd 5c 7c b5 3c c7 67 88 3c
       0.09837583 -0.097505584 0.022154026 0.016651047
0000a0 37 18 c5 3d 4e b9 d5 bd 53 49 83 bd 07 11 94 bc
       0.09623759 -0.10435735 -0.0641047 -0.018074526
0000b0 f1 af 02 bd 4b 59 f4 3d 20 ad dc 3d 92 de a4 bd
       -0.031906072 0.11931094 0.107752085 -0.080502644
0000c0 9c 53 b8 3d 78 d3 b3 3d 0f b8 a4 3d dc ec 25 bd
       0.09000322 0.08780569 0.08042919 -0.04050909
0000d0 16 9d 33 bd 6f 68 df bd 25 b9 8a bd 01 4a 90 3d
       -0.04385098 -0.10908591 -0.06773595 0.07045365
0000e0 ed 70 c8 3d ad c4 09 3e aa d7 08 bd e7 98 9e bd
       0.09787164 0.13453932 -0.0334088 -0.077440076
0000f0 aa 0f 32 bd a9 9a 87 3d 1f 8c 54 3d f2 34 1a 3e
       -0.04347197 0.06621296 0.051891442 0.1505926

action_net.weight f4 [2, 64]
000000 45 6e 0d 3e 25 6d 10 be 9b 31 9e 3d 5b 7e 8f bd
       0.13811596 -0.14104135 0.07724305 -0.07006522
000010 5e 52 e8 bd f8 5e 0d be 9f 80 3a be 5f 15 be 3c
       -0.11343835 -0.13805759 -0.18213128 0.02320355
000020 54 f2 ea 3d 2b 99 0f bc a8 2f d0 bd 85 ce ea 3d
       0.11472002 -0.008764545 -0.1016534 0.11465172
000030 50 fc a8 3d 03 fa ea bd e4 51 a3 3d d5 fa 1b 3e
       0.0825125 -0.11473467 0.07974604 0.15232404
000040 7b cc eb bd 07 52 15 be aa d4 d4 bd 8b a5 8e be
       -0.11513611 -0.14582072 -0.10392125 -0.27860674
000050 6b 06 2b be ce ac 01 3e c3 89 4f 3e 71 4f 04 bd
       -0.16701667 0.12663576 0.20267396 -0.032302324
000060 ac f2 76 3d f5 99 fb bd fe de 93 be 58 a5 81 3d
       0.060290024 -0.12285224 -0.28881067 0.06330365
000070 d2 9c e5 3d 48 9a 36 be 23 db 36 3e 13 d4 d3 3b
       0.11211552 -0.17832291 0.17857032 0.00646449
000080 a7 9a c8 bd 18 3e f0 3c 8e 3b e0 3d 58 15 4c be
       -0.097951226 0.029326484 0.10948859 -0.19930017
000090 fc aa ee bd af 7b 27 3d 6a 12 8c be 0a 22 e0 bd
       -0.116537064 0.04088944 -0.273578 -0.109439924
0000a0 34 d5 52 be 18 cd 26 3e c1 25 c8 3d 50 1a a5 3c
       -0.20589143 0.16289175 0.09772826 0.020154148
0000b0 0b 68 7c 3b 99 ab 5b 3e 7d d0 27 be a0 48 94 3d
       0.0038514163 0.21452178 -0.16388126 0.072404146
0000c0 4d 1f a5 bd 2f 66 1a be 2c e5 17 bd 3a 98 1a 3d
       -0.08062611 -0.15078042 -0.03708379 0.03774283
0000d0 e3 1a 08 3e 75 42 23 3e 0c 27 01 3e 38 d9 17 bd
       0.13291506 0.1594332 0.12612551 -0.03707239
0000e0 7c b8 d7 bd 2c df ed bd 3a fc 9a 3d dd 78 44 3e
       -0.105332345 -0.11614832 0.0756764 0.1918673
0000f0 f6 e8 7c 3d a0 5f 12 be 3c 7d e0 bd 26 f0 1d be
       0.061745606 -0.1429429 -0.109613866 -0.1542364
000100 23 5f b9 bd dc 68 71 3e 4d 5e 49 be e2 da 42 3e
       -0.09051349 0.23575157 -0.19664879 0.1902881
000110 f2 d5 13 3d f8 f5 8f 3e 34 3a c8 3d 05 8f 37 be
       0.036092706 0.28117347 0.09776726 -0.17925651
000120 87 cb 5e be 63 25 11 be 71 07 a3 bc e1 33 13 be
       -0.21757327 -0.14174418 -0.01990101 -0.14375259
000130 37 ac 0d 3e fd ac 9e 3d 99 f2 05 be fe 5c 3c be
       0.13835226 0.07747839 -0.13080825 -0.18394849
000140 60 97 3d 3e 8b 34 ff 3d 04 19 15 3e 20 03 46 3d
       0.18514776 0.12461194 0.14560324 0.048342824
000150 d8 f1 64 3d 6e 59 fe bd 2d 91 21 bd 50 47 8f bc
       0.055894703 -0.12419401 -0.03944509 -0.01749006
000160 63 e7 28 be 8b a3 2a 3e 56 46 0b 3e 45 51 23 be
       -0.16494517 0.16663949 0.1360105 -0.1594897
000170 bf fa 07 bd 68 61 6b 3d 55 b9 4c be a7 ea 3d 3d
       -0.033198114 0.05746594 -0.19992574 0.04636636
000180 58 1e 5e 3e 91 69 bd 3d 9a f9 92 3d 28 00 59 be
       0.21691263 0.09248651 0.07176514 -0.21191466
000190 06 ff 90 3e fd 0f ca 39 46 0a 26 3e bc d4 0d 3e
       0.28319567 0.00038540355 0.16214857 0.13850683
0001a0 f1 ec 65 3e 08 e6 0b be 7e 3e 89 3c 24 2c 83 bd
       0.22453667 -0.13661969 0.016753431 -0.064049035
0001b0 f0 5a d6 bd 07 54 8c 3d 0f d4 f3 3d 78 48 32 be
       -0.10466564 0.068519644 0.11905681 -0.17410457
0001c0 1b ff 4d 3e a6 7a 66 3e 94 91 c7 3c 81 fb 85 3d
       0.20116846 0.22507724 0.02436141 0.06542111
0001d0 a3 49 9b be e6 94 65 be d8 15 f3 bd c3 98 07 3d
       -0.30329618 -0.22420081 -0.11869401 0.03310467
0001e0 a6 f0 87 3e 6a d6 2b be 54 e2 20 be d0 bd 62 3d
       0.26550788 -0.16781011 -0.15711337 0.0553568
0001f0 1b 72 ad 3c c8 3e ef 3d bd 03 5d 3c 18 2b 64 3e
       0.021172574 0.116818964 0.013489661 0.22282064

action_net.bias f4 [2]
000000 62 d9 ca bd f5 01 23 3d
       -0.09904744 0.03979679
