examples/JumperHard/JumperHard.onnx (onnx, 58325 bytes, 6 tensors)

mlp_extractor.policy_net.0.weight f4 [64, 152]
-0.09931686 -0.26818025 -0.06408021 -0.0675631 0.08060479 0.061201584 0.384326 0.35170627
-0.06441151 -0.20777112 -0.09185391 0.0062891697 -0.15978391 -0.062140204 0.00068120426 -0.13931128
-0.058133878 -0.04574063 0.16969523 -0.047693733 -0.028765574 -0.13458031 0.0481167 -0.14044385
0.04826762 -0.1342381 0.030712668 0.15360683 -0.03080247 0.0732617 0.17456792 -0.081144184
0.013454069 0.006348349 -0.08106794 -0.11581769 -0.14991789 -0.026083684 -0.022564607 0.050785225
-0.063145906 -0.1069491 0.06259552 -0.27841485 0.14932264 -0.10662183 -0.08874216 0.048580408
0.010306331 -0.10926712 -0.15545359 -0.08439483 0.026061503 0.09782894 -0.1520809 0.07738741
-0.049656767 -0.04461362 0.015307876 0.030170321 0.052693885 0.016212946 0.048346825 0.092611074
-0.32028556 -0.03958604 -0.15570426 -0.13758123 0.1680759 -0.13978972 -0.23412037 0.028658733
-0.17472662 0.043775827 0.10113094 0.15842211 0.26414743 -0.14884484 -0.10612569 0.10771518
-0.2529384 -0.057246383 0.08689416 0.033413317 -0.06592731 -0.040893298 -0.16289984 0.013226219
-0.076711535 -0.11512612 0.01104705 -0.18413226 0.055118665 -0.27280247 -0.015111456 0.012164118
0.11612778 0.035077482 -0.046179805 -0.048427794 0.05037377 -0.20679411 0.03762914 -0.029759092
0.020231403 -0.023744455 -0.066415094 0.075446896 0.11636247 -0.03091624 0.13542715 -0.18415867
-0.06426949 -0.11240223 -0.16747187 -0.007903198 -0.018950384 0.028951405 0.13260536 0.068050236
0.02387794 0.131886 0.116750516 -0.12826279 -0.041132092 -0.030840471 -0.18296075 0.15069476
0.11584279 0.28044677 0.24206698 0.11455081 0.10131538 -0.036070496 0.022502217 -0.14857118
0.0057317074 -0.20508566 0.03703139 0.042388637 -0.051745746 0.090042345 -0.09519441 -0.14231294
0.08884595 0.033210624 -0.06901838 -0.36800304 -0.08892602 -0.08877759 0.03767518 0.1668706
-0.09447816 -0.25848395 0.10893837 -0.11546341 0.33221254 -0.0043665995 -0.14953957 0.04204393
0.24626294 0.10099609 -0.039042596 0.008376035 0.17068511 -0.09709169 0.007679882 0.10592412
0.17008105 -0.09212062 0.07409601 -0.030463466 -0.05754536 0.16433881 -0.016893812 0.18434174
0.14800254 0.0841701 -0.01756882 0.08331664 0.11094164 0.07667929 0.14440484 0.109598994
0.08912118 0.032352213 0.15042226 0.22593462 0.07541406 0.23975079 -0.023196539 0.0687799
-0.18970007 0.139874 0.16043481 -0.0575064 0.10348547 0.04261254 0.11621736 0.07531178
-0.070124745 0.07192613 -0.06282625 -0.1981755 -0.0041044992 0.09119697 0.08677245 0.07296315
-0.09435156 0.16094063 0.12487386 -0.044186242 0.018947756 0.0783204 -0.068744086 0.2555252
-0.14772904 -0.13566187 0.03133323 0.027220802 -0.11537838 0.06418938 -0.17581633 0.012778166
-0.050573196 -0.024722107 0.0066559766 0.1629473 0.033108406 -0.18939401 0.23270117 0.02157545
0.2056938 -0.12654074 -0.12794109 -0.09590883 -0.040259134 -0.1879676 0.08910166 0.307127
0.16695541 0.017494148 -0.0068599386 0.12737796 -0.2735677 0.034095358 -0.05691491 0.014759822
0.20245802 0.21301806 0.1473594 0.17223477 -0.10451901 -0.15903957 -0.012157842 -0.008098435
00000000: a366 cbbd ec4e 89be 7c3c 83bd 865e 8abd
00000010: 2014 a53d 83ae 7a3d 61c6 c43e d812 b43e
00000020: 2fea 83bd f4c1 54be e71d bcbd 6115 ce3b
00000030: 659e 23be ba86 7ebd d892 323a 9ea7 0ebe
00000040: ca1d 6ebd 875a 3bbd 96c4 2d3e 815a 43bd
00000050: c8a5 ebbc 6ccf 09be 0416 453d 83d0 0fbe
00000060: 45b4 453d b675 09be 2299 fb3c 1c4b 1d3e
00000070: 7655 fcbc 3b0a 963d efc1 323e ec2e a6bd
00000080: 756e 5c3c d005 d03b f306 a6bd d331 edbd
00000090: 1384 19be 73ad d5bc 69d9 b8bc 2b04 503d
000000a0: a452 81bd 2108 dbbd 1432 803d 648c 8ebe
000000b0: 09e8 183e 8c5c dabd 73be b5bd 40fc 463d
000000c0: e3db 283c 71c7 dfbd 3a2f 1fbe 32d7 acbd
000000d0: ef7e d53c 8a5a c83d 18bb 1bbe 4a7d 9e3d
000000e0: e564 4bbd c5bc 36bd e3cd 7a3c c027 f73c
000000f0: 8bd5 573d 03d1 843c 5207 463d e0aa bd3d
00000100: 78fc a3be f924 22bd f070 1fbe 18e2 0cbe
00000110: 171c 2c3e 0925 0fbe 40bd 6fbe b8c5 ea3c
00000120: 89eb 32be 484e 333d bd1d cf3d 6839 223e
00000130: 553e 873e c86a 18be 6d58 d9bd c799 dc3d
00000140: 2481 81be 2f7b 6abd 91f5 b13d 67dc 083d
00000150: e604 87bd bb7f 27bd 37cf 26be c9b2 583c
00000160: f01a 9dbd 3ec7 ebbd b0fe 343c 2b8d 3cbe
00000170: 1cc4 613d c4ac 8bbe 0a96 77bc 024c 473c
00000180: 67d4 ed3d 68ad 0f3d 0927 3dbd 395c 46bd
00000190: ba54 4e3d d6c1 53be 0321 1a3d 57c9 f3bc
000001a0: 54bc a53c bb83 c2bc a304 88bd e783 9a3d
000001b0: 724f ee3d 0e44 fdbc 6aad 0a3e 1794 3cbe
000001c0: b99f 83bd 2433 e6bd bf7d 2bbe 6a7c 01bc
000001d0: d63d 9bbc 7f2b ed3c b3c9 073e ec5d 8b3d
000001e0: ab9b c33c 200d 073e e51a ef3d 5257 03be
000001f0: 207a 28bd 28a5 fcbc 105a 3bbe ba4f 1a3e
00000200: fc3e ed3d b896 8f3e 68e0 773e 9d99 ea3d
00000210: 707e cf3d a8be 13bd 9256 b83c 0b23 18be
00000220: 0cd1 bb3b fa01 52be 3aae 173d b59f 2d3d
00000230: 59f3 53bd 1f68 b83d 49f5 c2bd 7cba 11be
00000240: def4 b53d dd07 083d 8259 8dbd e56a bcbe
00000250: d81e b6bd 06d1 b5bd 4a51 1a3d 20e0 2a3e
00000260: c47d c1bd 0258 84be 151b df3d 1578 ecbd
00000270: c317 aa3e b115 8fbb e720 19be 4236 2c3d
00000280: 5a2c 7c3e 0ad7 ce3d 21eb 1fbd a33b 093c
00000290: 14c8 2e3e 02d8 c6bd 85a7 fb3b bfee d83d
000002a0: ba29 2e3e bca9 bcbd a6bf 973d 858e f9bc
000002b0: afb4 6bbd 6f48 283e e464 8abc 15c4 3c3e
000002c0: fa8d 173e 6061 ac3d 7cec 8fbc eaa1 aa3d
000002d0: 5f35 e33d 080a 9d3d ddde 133e 7075 e03d
000002e0: 2a85 b63d c183 043d 4b08 1a3e 685b 673e
000002f0: b072 9a3d 3b81 753e ab06 bebc 7adc 8c3d
00000300: bc40 42be 213b 0f3e 0649 243e d58b 6bbd
00000310: 31f0 d33d 7d8a 2e3d 5e03 ee3d 103d 9a3d
00000320: 909d 8fbd 024e 933d 0dab 80bd 85ee 4abe
00000330: 097f 86bb 7ac5 ba3d c1b5 b13d b46d 953d
00000340: 643b c1bd 9fcd 243e debd ff3d a2fc 34bd
00000350: 5338 9b3c 7266 a03d b3c9 8cbd 33d4 823e
00000360: 4846 17be f2ea 0abe 4657 003d 29fe de3c
00000370: 804b ecbd b975 833d 3209 34be 835b 513c
00000380: d725 4fbd 0486 cabc 611a da3b a8db 263e
00000390: ae9c 073d 81f0 41be 3749 6e3e 00bf b03c
000003a0: 65a1 523e e593 01be fd02 03be d96b c4bd
000003b0: c3e6 24bd 947a 40be ee7a b63d c03f 9d3e
000003c0: 5cf6 2a3e e34f 8f3c 56c9 e0bb 5e6f 023e
000003d0: 1111 8cbe 93a7 0b3d 9c1f 69bd 2ed3 713c
000003e0: 2851 4f3e 6821 5a3e 62e5 163e 505e 303e
000003f0: 100e d6bd 45db 22be af31 47bc 4caf 04bc

mlp_extractor.policy_net.0.bias f4 [64]
0.0033993341 -0.033469085 -0.04753568 -0.037012 -0.03776854 0.096294045 0.05900513 0.016716417
0.00052941724 0.01005099 -0.01842748 0.02048835 0.0014893945 -0.034173194 0.036161866 0.03380569
0.071961 0.019952862 -0.022701396 -0.025111003 0.0048832144 -0.04204029 0.012493111 -0.049445245
0.012079429 0.01581643 0.057446823 0.022321537 -0.0015224156 0.012906595 0.0023552964 0.00047484392
-0.010979711 0.051805913 -0.06516777 0.012748631 0.017922565 0.05333619 0.019671986 -0.00024307967
-0.0006466265 -0.038998257 -0.0315263 0.0015335719 -0.033548884 0.040280405 0.020684125 0.06481733
0.0308522 -0.015999151 -0.030640185 0.006280609 0.04533221 0.019842608 0.0014380215 -0.061128117
-0.061356068 0.009919665 -0.0013809294 -0.064405404 0.015482424 0.02055709 0.01503495 -0.012150719
00000000: 5dc7 5e3b e116 09bd c6b4 42bd e599 17bd
00000010: 2fb3 1abd d035 c53d 5daf 713d def0 883c
00000020: 97c8 0a3a e8ac 243c 3af5 96bc 2fd7 a73c
00000030: c937 c33a 31f9 0bbd 771e 143d d677 0a3d
00000040: 4a60 933d 2f74 a33c 47f8 b9bc 97b5 cdbc
00000050: 5f03 a03b 7032 2cbd e8af 4c3c 1987 4abd
00000060: cce8 453c 7591 813c 5c4d 6b3d a8db b63c
00000070: ca8b c7ba 2f76 533c 515b 1a3b 79f4 f839
00000080: 3fe4 33bc 7032 543d ae76 85bd a2df 503c
00000090: 58d2 923c 0c77 5a3d 2527 a13c 34e3 7eb9
000000a0: 5f82 29ba a3bc 1fbd b921 01bd 2202 c93a
000000b0: 8e6a 09bd 11fd 243d c171 a93c f3be 843d
000000c0: c1bd fc3c a710 83bc 2001 fbbc 91cd cd3b
000000d0: 44ae 393d f78c a23c ff7b bc3a 7a61 7abd
000000e0: 8050 7bbd 1786 223c 4d00 b5ba fbe6 83bd
000000f0: fea9 7d3c 5867 a83c 2755 763c cf13 47bc

mlp_extractor.policy_net.2.weight f4 [64, 64]
0.42153797 -0.1501564 0.010859372 0.27741894 0.3347799 0.33067694 0.017906519 -0.057887137
0.124808274 -0.15736964 0.21850659 0.11345878 0.03387843 0.038717255 0.26899198 0.3072485
-0.18362442 0.10245377 -0.019107275 0.08778656 0.15032396 0.026964912 -0.31079215 0.065875046
-0.20421672 0.11632075 0.15909453 0.28837255 0.13466047 0.2413468 -0.16081108 -0.09672403
-0.2839677 -0.03086869 -0.06983153 0.32657546 0.10551419 0.056031484 0.13669004 -0.39178553
-0.053823743 -0.19086258 0.2103912 0.10321804 -0.13213776 0.07221419 0.004513878 0.27502054
-0.28464285 0.30081013 0.4425106 -0.11427379 -0.091649085 -0.14149633 0.04330651 0.08668784
0.2703154 0.051066823 -0.15473638 0.14824466 -0.090587005 0.058169063 0.15853405 -0.24183741
-0.10208393 0.00589503 0.22337501 -0.26767164 0.25597146 0.13975298 0.11324103 0.11541133
-0.16971838 -0.34369153 -0.31861505 0.21042089 -0.037440665 -0.03839099 0.22490714 0.27075824
0.3123477 0.15753776 -0.0908108 0.08922356 0.040284205 -0.15774071 0.3404931 -0.38020203
0.2572478 -0.09730998 0.11950317 -0.2064276 0.021764753 -0.09074679 0.113024995 -0.15133308
-0.21547501 0.455026 -0.09869448 -0.105883725 0.11667406 0.1153448 -0.02184621 -0.040102273
-0.2579524 -0.024444098 -0.22869344 -0.08516974 0.17261729 -0.07993068 0.250021 -0.1210323
0.240506 0.2991606 -0.45802677 -0.11591376 -0.075527646 -0.2680123 -0.07272663 -0.21551959
0.37770355 0.10867556 0.12659407 -0.28482932 -0.01804541 0.18257308 0.11496444 -0.21603587
-0.12963025 0.0698016 -0.10487346 -0.20944047 -0.16908601 0.4052475 -0.18001123 -0.2537282
0.2179156 -0.010436513 -0.027114235 0.368017 -0.06282513 0.18398309 -0.20860279 0.35087264
0.08089265 -0.16371188 -0.10215104 0.17055933 0.04654506 -0.15476127 -0.09272011 -0.25544882
-0.2939438 0.061773594 -0.3143356 -0.024561942 -0.16622376 0.014253974 0.18034537 0.00578015
-0.2218801 0.10045645 0.23535466 0.153263 0.19926544 -0.04437362 0.07922015 0.139342
0.28389847 -0.17237817 -0.2561102 -0.19338809 -0.01461629 -0.24803552 0.16593897 -0.044038076
-0.53368276 -0.007175407 -0.29529932 0.0031449688 0.04301573 -0.028969958 -0.03914902 0.186514
0.039665587 -0.14752814 0.070694394 0.2861086 0.065198414 -0.34811193 -0.40680912 0.044678744
-0.15615746 -0.18337886 -0.14075157 0.06674737 0.08436497 0.08533653 0.24098861 0.013204968
-0.11500071 -0.325608 0.112673275 0.14127697 0.23949164 -0.011635886 -0.3273645 0.32571784
-0.018602494 0.007414631 0.27442318 0.48345688 -0.27887148 0.08088946 -0.078992695 -0.00886404
-0.009129847 0.3964311 0.12525323 0.15584092 0.13380219 -0.20067793 0.119972385 -0.30727065
0.21513307 0.12157487 -0.1482996 -0.06592897 0.0448803 0.0857446 0.08342589 -0.116861284
-0.041312937 -0.388982 0.1472532 0.100465596 -0.062583685 -0.174997 -0.10234924 0.18929067
-0.04969889 -0.43340293 -0.2346701 0.014267014 0.19950783 0.085337065 0.1089326 0.13903064
0.1834531 -0.07202611 0.105696104 -0.06237126 0.08608251 0.102877825 0.18382068 0.1836857
00000000: d3d3 d73e 99c2 19be 82eb 313c db09 8e3e
00000010: 4568 ab3e 7d4e a93e b1b0 923c 101b 6dbd
00000020: 7b9b ff3d 8225 21be 31c0 5f3e 145d e83d
00000030: 1cc4 0a3d fc95 1e3d 51b9 893e ad4f 9d3e
00000040: 0a08 3cbe 48d3 d13d dc86 9cbc 71c9 b33d
00000050: 86ee 193e 85e5 dc3c 2620 9fbe 7fe9 863d
00000060: 301e 51be 9339 ee3d ade9 223e 91a5 933e
00000070: 6fe4 093e 9e23 773e a9ab 24be 4017 c6bd
00000080: 3764 91be 56e0 fcbc d503 8fbd e634 a73e
00000090: d317 d83d 4581 653d 79f8 0b3e 1d98 c8be
000000a0: 4976 5cbd 7b71 43be ca70 573e fb63 d33d
000000b0: 1f4f 07be 09e5 933d 27e9 933b 7ecf 8c3e
000000c0: b5bc 91be c903 9a3e c090 e23e 6008 eabd
000000d0: 84b2 bbbd 6ae4 10be 2b62 313d 6589 b13d
000000e0: c866 8a3e 722b 513d 3773 1ebe 73cd 173e
000000f0: ae85 b9bd af42 6e3d c056 223e 3aa4 77be
00000100: 6111 d1bd 192b c13b 6bbc 643e 420c 89be
00000110: b10e 833e 681b 0f3e eaea e73d c65c ec3d
00000120: a8ca 2dbe 56f8 afbe 8321 a3be 9378 573e
00000130: 625b 19bd df3f 1dbd 0f4e 663e d3a0 8a3e
00000140: 0aec 9f3e 9451 213e 03fb b9bd d8ba b63d
00000150: 0d01 253d c886 21be 1d55 ae3e d7a9 c2be
00000160: fcb5 833e 744a c7bd 14be f43d c261 53be
00000170: ff4b b23c 74d9 b9bd a679 e73d 0ff7 1abe
00000180: 7ba5 5cbe 2bf9 e83e 5520 cabd 91d9 d8bd
00000190: cff2 ee3d e539 ec3d d3f6 b2bc 4842 24bd
000001a0: 5612 84be fd3e c8bc 9d2e 6abe 796d aebd
000001b0: 96c2 303e b2b2 a3bd c102 803e c8df f7bd
000001c0: 3447 763e 942b 993e 7c82 eabe 3264 edbd
000001d0: 3dae 9abd e838 89be b3f1 94bd 2bb1 5cbe
000001e0: 5c62 c13e 4b91 de3d e0a1 013e 26d5 91be
000001f0: f8d3 93bc 70f4 3a3e 7a72 eb3d 8238 5dbe
00000200: cbbd 04be 24f4 8e3d e6c7 d6bd 9077 56be
00000210: e224 2dbe 9a7c cf3e dd54 38be aae8 81be
00000220: 4425 5f3e e9fd 2abc ac1e debc b96c bc3e
00000230: 76aa 80bd 1066 3c3e f89b 55be 94a5 b33e
00000240: 0cab a53d 16a4 27be 9134 d1bd 1ba7 2e3e
00000250: 08a6 3e3d bd79 1ebe 0be4 bdbd 30ca 82be
00000260: cd7f 96be 4f06 7d3d 99f0 a0be 2036 c9bc
00000270: 9036 2abe 8089 693c 75ac 383e 6a67 bd3b
00000280: 8934 63be 1cbc cd3d d000 713e faf0 1c3e
00000290: 3d0c 4c3e 1dc1 35bd 2d3e a23d abaf 0e3e
000002a0: 245b 913e e783 30be e020 83be 8707 46be
000002b0: 2a79 6fbc 06fd 7dbe e8eb 293e 4561 34bd
000002c0: 6f9f 08bf ad1f ebbb 7931 97be d21b 4e3b
000002d0: 4331 303d 6852 edbc b95a 20bd 87fd 3e3e
000002e0: 6278 223d 9e11 17be 39c8 903d d47c 923e
000002f0: bf86 853d ba3b b2be 4949 d0be 0f01 373d
00000300: bee7 1fbe abc7 3bbe 2e21 10be d8b2 883d
00000310: 8bc7 ac3d ebc4 ae3d b8c5 763e a659 583c
00000320: 7e85 ebbd 17b6 a6be 3fc1 e63d e9aa 103e
00000330: 4c3d 753e 71a4 3ebc 529c a7be 7dc4 a63e
00000340: 4264 98bc 6ff6 f23b 3281 8c3e a987 f73e
00000350: 3ec8 8ebe 60a9 a53d ecc6 a1bd 7a3a 11bc
00000360: 5b95 15bc 04f9 ca3e 6242 003e c394 1f3e
00000370: 7103 093e 847e 4dbe 15b4 f53d 9452 9dbe
00000380: d84b 5c3e 3ffc f83d dadb 17be c505 87bd
00000390: 68d4 373d dd9a af3d 31db aa3d f854 efbd
000003a0: c137 29bd a628 c7be 8bc9 163e e8c0 cd3d
000003b0: e02b 80bd 6a32 33be 7a9c d1bd 6ad5 413e
000003c0: 1091 4bbd fde6 ddbe 5c4d 70be 32c0 693c
000003d0: c84b 4c3e 33c5 ae3d 0e18 df3d 0c5e 0e3e
000003e0: 21db 3b3e 6d82 93bd 3377 d83d 0279 7fbd
000003f0: 074c b03d 9cb1 d23d 7d3b 3c3e 1b18 3c3e

mlp_extractor.policy_net.2.bias f4 [64]
-0.038915873 0.05649596 -0.006249021 -0.021170523 0.0015017721 0.031691235 0.01851369 -0.030955078
-0.051315002 0.019588806 0.0079889055 0.08404207 -0.0068935994 0.066593185 0.054284636 0.020432465
0.018183764 -0.0040672286 -0.072844416 -0.020976368 0.008811445 0.037375692 0.0012983008 0.043122604
0.069456495 0.035611384 0.07423194 -0.066399984 -0.014006029 -0.06449165 -0.03321285 0.043387637
0.041878212 0.029363446 -0.00267182 -0.014589168 -0.07083721 0.013368264 0.05396915 0.01569996
0.006613672 -0.0711524 0.027243003 0.009946553 0.005661871 -0.019218553 -0.0432388 0.00040165684
-0.032187354 0.0048629893 -0.020235354 6.6066845e-05 0.08624559 0.009470201 -0.0067142895 0.00347633
0.039622914 -0.05041037 0.050139837 -0.00115907 -0.018436817 0.0182552 0.0496277 0.0882543
00000000: 4066 1fbd 4f68 673d 96c4 ccbb ce6d adbc
00000010: 1cd7 c43a abce 013d 06aa 973c 8195 fdbc
00000020: ae2f 52bd b478 a03c e6e3 023c 401e ac3d
00000030: b4e3 e1bb 0262 883d 9159 5e3d fc61 a73c
00000040: 1ef6 943c 6346 85bb 742f 95bd a2d6 abbc
00000050: e15d 103c 4117 193d bf2b aa3a 54a1 303d
00000060: 353f 8e3d 3edd 113d ea06 983d b7fc 87bd
00000070: 8b79 65bc 3314 84bd 330a 08bd 3cb7 313d
00000080: 7d88 2b3d 9c8b f03c b419 2fbb 6807 6fbc
00000090: 1913 91bd 9006 5b3c c10e 5d3d 349d 803c
000000a0: 80b7 d83b 59b8 91bd b82c df3c def6 223c
000000b0: 3787 b93b 3a70 9dbc 2b1b 31bd 7895 d239
000000c0: e3d6 03bd b659 9f3b 9dc4 a5bc 5e8d 8a38
000000d0: 87a1 b03d e728 1b3c 8b03 dcbb 24d3 633b
000000e0: a34b 223d 1b7b 4ebd 6e5f 4d3d efeb 97ba
000000f0: cf08 97bc ee8b 953c 6a46 4b3d acbe b43d

action_net.weight f4 [3, 64]
-0.21401021 0.17459667 -0.014983516 -0.017244553 -0.017469225 0.16731301 -0.010569632 -0.29314435
0.039068285 -0.0057745804 0.1872767 0.24599588 0.19423796 -0.052837294 0.13211371 0.24013518
-0.1928797 -0.07717379 -0.2604698 -0.088724986 -0.02360821 -0.1042127 0.12503958 -0.09858314
0.18656498 0.20217933 0.1881124 -0.41534647 -0.04149565 -0.30870184 0.08590954 -0.1784573
0.011202943 0.14928772 0.10158677 -0.063765794 0.13851064 0.20987992 0.25095975 -0.25631875
0.16672498 -0.14986633 0.0785504 0.12070238 -0.16748244 0.058697835 0.16777393 0.020643182
-0.20258765 0.025877906 -0.28192568 -0.050552342 0.06688192 0.013149466 0.0895863 0.21767572
0.28318515 0.24692881 -0.09840261 0.08465695 -0.258311 -0.06979691 0.29579574 0.2909859
0.03522234 -0.15124387 -0.20880005 0.0486393 -0.2340807 -0.069530874 0.027575353 0.017807325
0.06427538 0.23969907 -0.035384268 -0.00058541814 0.13312112 0.27383137 -0.12728427 0.03534202
0.26040265 -0.10481658 0.13825144 -0.13226205 0.2500808 -0.20701727 0.16116197 0.2985258
-0.117634974 -0.23106909 -0.047682397 0.063411355 0.051165104 -0.017227495 -0.07669645 -0.10527677
-0.29658687 -0.082752906 0.23720147 -0.15391989 0.43179098 -0.071139656 -0.071949564 0.1491376
0.19536279 0.0069724615 0.22310084 0.0426721 0.025863271 -0.23115672 0.19435352 -0.30424032
0.050895713 0.19547953 0.08660387 0.17571029 -0.18162778 -0.003288304 0.080162466 -0.28785327
-0.09812627 -0.14405762 0.27666685 0.1092169 -0.07633799 -0.20435707 -0.08378676 -0.17551908
-0.10804093 -0.007687529 0.020545958 -0.03036608 -0.13673545 -0.016689077 0.17083539 -0.06607235
0.16368823 0.017548809 -0.009058778 0.106803834 0.0993816 0.027122594 -0.006444971 0.1581469
0.10740686 -0.010228648 -0.07063658 -0.07545738 -0.24849924 0.0007212637 -0.028308326 0.011007864
0.04709353 -0.03216507 -0.017430577 -0.13955675 0.041320857 -0.06355559 -0.17969456 0.06336285
-0.022910535 -0.087104976 0.13432193 0.036633763 0.16454604 -0.041424148 0.030322723 0.06744066
0.14472175 0.0042174426 0.11152895 0.17377329 0.11131934 0.0032775193 0.082895845 0.06466721
-0.08742194 -0.008119781 -0.06936729 0.035729278 0.24015889 -0.072072975 -0.19809195 0.024438275
-0.0028707094 -0.10988433 0.11192762 -0.041091233 -0.09369394 0.035152197 0.1011972 0.051912654
00000000: 7e25 5bbe 78c9 323e 6c7d 75bc 7344 8dbc
00000010: 9f1b 8fbc 1a54 2b3e 402c 2dbc 0417 96be
00000020: 1106 203d b138 bdbb 77c5 3f3e 58e6 7b3e
00000030: 51e6 463e eb6b 58bd d148 073e ffe5 753e
00000040: 4282 45be 4b0d 9ebd 4c5c 85be 72b5 b5bd
00000050: 0166 c1bc 786d d5bd 600a 003e f5e5 c9bd
00000060: e40a 3f3e 1908 4f3e 89a0 403e 4ba8 d4be
00000070: 58f7 29bd 2b0e 9ebe 57f1 af3d 83bd 36be
00000080: 8c8c 373c e1de 183e b90c d03d a497 82bd
00000090: bcd5 0d3e c3ea 563e cc7d 803e 363c 83be
000000a0: f4b9 2a3e 8f76 19be 08df a03d cf32 f73d
000000b0: 8480 2bbe 246d 703d eecc 2b3e e41b a93c
000000c0: 2373 4fbe e7fd d33c 9058 90be f90f 4fbd
000000d0: 63f9 883d dc70 573c 0679 b73d 62e6 5e3e
000000e0: a5fd 903e e8da 7c3e 4f87 c9bd 9f60 ad3d
000000f0: 5741 84be aff1 8ebd 8a72 973e 1bfc 943e
00000100: 4d45 103d acdf 1abe aecf 55be 013a 473d
00000110: dab2 6fbe 3466 8ebd b5e5 e13c abe0 913c
00000120: cfa2 833d ac73 753e 18ef 10bd bf76 19ba
00000130: e750 083e a033 8c3e cf56 02be cbc2 103d
00000140: 7f53 853e 13aa d6bd c991 0d3e b46f 07be
00000150: 970a 803e 56fc 53be a507 253e 60d8 983e
00000160: 9bea f0bd 609d 6cbe 9e4e 43bd d0dd 813d
00000170: 8092 513d ad20 8dbc 0713 9dbd 599b d7bd
00000180: 3cda 97be 5b7a a9bd f1e4 723e 2d9d 1dbe
00000190: b513 dd3e abb1 91bd 4b5a 93bd 87b7 183e
000001a0: 2f0d 483e 3f79 e43b 8c74 643e f1c8 2e3d
000001b0: 36df d33c 59b4 6cbe 9c04 473e 63c5 9bbe
000001c0: 0678 503d c92b 483e 5f5d b13d 66ed 333e
000001d0: a2fc 39be 9680 57bb 382c a43d 8161 93be
000001e0: 6df6 c8bd d783 13be 47a7 8d3e 1cad df3d
000001f0: 1857 9cbd fb42 51be 6598 abbd 46bb 33be
00000200: 9044 ddbd abe7 fbbb ff4f a83c 49c2 f8bc
00000210: 6104 0cbe 88b7 88bc 79ef 2e3e f150 87bd
00000220: e39d 273e 85c2 8f3c 456b 14bc f8bb da3d
00000230: 9588 cb3d 3430 de3c 5630 d3bb 43f1 213e
00000240: 21f8 db3d 0f96 27bc e9a9 90bd 6689 9abd
00000250: 9676 7ebe 3013 3d3a dde6 e7bc 545a 343c
00000260: 25e5 403d 85bf 03bd 92ca 8ebc f7e7 0ebe
00000270: 0f40 293d 6f29 82bd da01 38be 62c4 813d
00000280: e0ae bbbc 1864 b2bd b08b 093e 490d 163d
00000290: c27e 283e 5eac 29bd 5c67 f83c 541e 8a3d
000002a0: f031 143e 7932 8a3b 4a69 e43d a0f1 313e
000002b0: 65fb e33d a6cb 563b 4cc5 a93d 3e70 843d
000002c0: 460a b3bd d408 05bc 7010 8ebd dd58 123d
000002d0: 36ec 753e ff9a 93bd 9ed8 4abe c732 c83c
000002e0: 8322 3cbb 090b e1bd 4f3a e53d 484f 28bd
000002f0: 9ce2 bfbd c0fb 0f3d 7a40 cf3d 5da2 543d

action_net.bias f4 [3]
0.04490427 -0.022627037 0.049864177
00000000: 8aed 373d 565c b9bc 613e 4c3d
