examples/FlyBy/FlyBy.onnx (onnx, 21197 bytes, 6 tensors)

mlp_extractor.policy_net.0.weight f4 [64, 8]
0.25764862 0.13755052 -0.049644873 0.09324968 -0.14775853 0.05562055 0.26261604 0.16700548
0.34819403 0.66135395 -0.2543809 -0.28587815 0.13971409 0.40143374 -0.07074488 0.0062564593
0.56501096 0.5079097 -0.24845698 0.21929982 -0.008704912 0.0029135726 0.10025349 -0.27281216
0.3022637 0.117335446 -0.068469234 -0.15590975 0.073617585 0.1678395 0.085683726 0.14742033
0.25386378 0.33800784 0.07375824 0.05680907 0.13808659 0.50168794 0.17448533 0.2767982
0.27096573 0.12896273 -0.19608685 -0.36844778 -0.038144477 0.048373967 -0.124947235 0.057256922
0.61644053 0.027367871 -0.051431112 -0.05265279 -0.14727028 0.046188045 -0.11103911 -0.02983304
-0.63436586 0.3239052 -0.08470601 -0.40444982 0.3010569 -0.35874385 0.004486716 -0.07225315
-0.4330457 0.19994996 0.015709616 0.034225717 0.054682977 -0.14928932 -0.02606845 -0.1866426
-0.30555797 0.722183 0.01854633 -0.08356331 0.10159832 -0.16143999 0.39269146 0.17816621
0.049201638 -0.51077914 -0.12761907 0.2394678 -0.17426763 -0.05017961 0.2687712 -0.07847512
-0.15738387 -0.5041676 -0.0939034 -0.1381027 0.075986765 -0.0436576 0.25521266 0.03713365
0.22243321 -0.20367748 -0.20088889 0.45821762 -0.06009449 0.27316448 -0.08553286 -0.5121337
-0.50276345 -0.3464605 -0.16931085 -0.012282828 -0.20242189 0.083939284 0.15510875 -0.117652036
0.24676861 0.52403104 -0.2528233 -0.35200384 0.21203227 0.08713453 -0.08943766 -0.058109097
-0.37186855 -0.17337726 -0.059327308 -0.010900704 -0.22088379 0.07216741 -0.05135962 -0.06488391
-0.24047965 0.52184904 -0.051389433 -0.20125087 0.4291798 0.22421248 0.1670057 0.21992193
-0.051318634 0.65684986 0.09852338 0.070314355 -0.33160108 0.06490837 0.18529385 0.165095
-0.6951998 0.22983228 0.07338901 -0.0417745 0.037165444 -0.50264955 -0.10241825 0.015594237
-0.31608644 -0.47554025 0.32644665 -0.19182736 0.052240275 0.17307697 -0.15724225 -0.07562219
0.37627932 0.7974918 -0.27584544 0.08230438 -0.48295563 0.07679356 0.07989972 -0.06336714
-0.36098558 0.48688743 -0.1321676 -0.15747993 0.13796297 0.2935371 0.076414235 -0.0019167791
-0.33888903 0.4445504 -0.003553868 -0.01926424 0.19625305 0.05614251 -0.028165648 -0.053290986
0.20714498 0.692425 -0.13210046 -0.079768546 -0.06756347 0.03343445 0.15487619 0.022632897
0.42648983 -0.49072298 0.19758385 0.097638234 -0.113179766 -0.16046533 -0.29300296 0.0495822
0.32106835 -0.62697583 0.1639452 0.09756728 -0.05648114 0.028336402 -0.03346688 0.3864761
-0.44202724 0.2571847 -0.067758515 -0.034077704 0.13504188 -0.1365818 0.20522018 0.14659418
0.5155998 -0.397291 0.28569058 0.29209965 0.14231041 -0.12949593 -0.19593816 0.09379454
0.0016020813 -0.36481827 -0.049002867 0.19245215 0.1390773 0.09083425 -0.13129225 -0.36778027
0.10355156 -0.60321605 0.043580823 0.010124067 0.02111735 0.3545487 0.26136896 0.12977427
-0.25760236 0.51182085 0.11664318 -0.20379722 0.008848388 -0.06850299 -0.31059295 0.07192161
-0.20844582 0.50890064 -0.22786099 -0.059399314 -0.092893496 0.018693997 0.10883114 -0.1542662
00000000: 85ea 833e 0bda 0c3e 6c58 4bbd b0f9 be3d
00000010: 034e 17be 60d2 633d 9c75 863e 7c03 2b3e
00000020: 7d46 b23e 7e4e 293f 373e 82be 9f5e 92be
00000030: 3611 0f3e b988 cd3e b1e2 90bd fc02 cd3b
00000040: 8fa4 103f 5f06 023f 826b 7ebe 2290 603e
00000050: 0c9f 0ebc a3f1 3e3b b451 cd3d 09ae 8bbe
00000060: 4fc2 9a3e 914d f03d 9939 8cbd cea6 1fbe
00000070: d1c4 963d 1ede 2b3e f37a af3d 5bf5 163e
00000080: 6ffa 813e 5d0f ad3e 8f0e 973d a1b0 683d
00000090: 9266 0d3e 9f6e 003f 48ac 323e 7eb8 8d3e
000000a0: 05bc 8a3e ce0e 043e feca 48be 30a5 bcbe
000000b0: 623d 1cbd c823 463d 56e4 ffbd 3c86 6a3d
000000c0: 0ccf 1d3f 9632 e03c 6ea9 52bd 74aa 57bd
000000d0: 05ce 16be ad2f 3d3d 7968 e3bd 6b64 f4bc
000000e0: cd65 22bf e7d6 a53e 587a adbd 0c14 cfbe
000000f0: 2124 9a3e 46ad b7be 4d05 933b 76f9 93bd
00000100: 2ab8 ddbe afbf 4c3e 74b1 803c 4430 0c3d
00000110: 42fb 5f3d 4ddf 18be 818d d5bc 3d1f 3fbe
00000120: 1872 9cbe fce0 383f 79ee 973c 3e23 abbd
00000130: c812 d03d 8650 25be db0e c93e 3471 363e
00000140: a887 493d 6cc2 02bf 93ae 02be 0c37 753e
00000150: 3773 32be 2289 4dbd 619c 893e 90b7 a0bd
00000160: 3d29 21be 2111 01bf 6d50 c0bd cb6a 0dbe
00000170: f39e 9b3d 50d2 32bd 3cab 823e 7419 183d
00000180: 88c5 633e d490 50be d1b5 4dbe 809b ea3e
00000190: a425 76bd 37dc 8b3e da2b afbd 321b 03bf
000001a0: 1bb5 00bf 4563 b1be d35f 2dbe ea3d 49bc
000001b0: af47 4fbe 5ce8 ab3d d4d4 1e3e 8df3 f0bd
000001c0: e9b0 7c3e e626 063f 0e72 81be d939 b4be
000001d0: fd1e 593e 9773 b23d 182b b7bd ce03 6ebd
000001e0: 8e65 bebe cf89 31be 3101 73bd de98 32bc
000001f0: 5c2f 62be 82cc 933d 775e 52bd dbe1 84bd
00000200: 4c40 76be e697 053f ba7d 52bd b514 4ebe
00000210: 74bd db3e f597 653e 8b03 2b3e 3733 613e
00000220: 7d33 52bd 5027 283f a0c6 c93d f900 903d
00000230: 9ec7 a9be aeee 843d acbd 3d3e aa0e 293e
00000240: 9df8 31bf 2759 6b3e fa4c 963d bd1b 2bbd
00000250: cb3a 183d a4ad 00bf a9c0 d1bd f87e 7f3c
00000260: 15d6 a1be 037a f3be 0424 a73e 646e 44be
00000270: e6f9 553d 173b 313e 1d04 21be cfdf 9abd
00000280: afa7 c03e 6c28 4c3f 9d3b 8dbe 338f a83d
00000290: f645 f7be f145 9d3d 77a2 a33d a2c6 81bd
000002a0: 1ad3 b8be 4f49 f93e f156 07be 6b42 21be
000002b0: 2a46 0d3e 7f4a 963e 117f 9c3d 6f3c fbba
000002c0: dd82 adbe 1c9c e33e 03e8 68bb 0ad0 9dbc
000002d0: 8ff6 483e b0f5 653d a5bb e6bc a647 5abd
000002e0: d01d 543e c442 313f 5845 07be b15d a3bd
000002f0: b75e 8abd 90f2 083d dd97 1e3e a068 b93c
00000300: e05c da3e 0b40 fbbe 6c53 4a3e 8ef6 c73d
00000310: cbca e7bd 0651 24be 7c04 96be b416 4b3d
00000320: 1263 a43e 7d81 20bf 40e1 273e 5bd1 c73d
00000330: c558 67bd be21 e83c 9114 09bd 32e0 c53e
00000340: 6551 e2be b7ad 833e fac4 8abd 1095 0bbd
00000350: 6b48 0a3e 19dc 0bbe 3d25 523e c91c 163e
00000360: 59fe 033f ba69 cbbe 0946 923e 168e 953e
00000370: d2b9 113e 959a 04be 03a4 48be 5a17 c03d
00000380: eefc d13a 76c9 babe 3bb7 48bd 2d12 453e
00000390: 486a 0e3e 4f07 ba3d 7a71 06be b24d bcbe
000003a0: d712 d43d 5e6c 1abf ce81 323d 6adf 253c
000003b0: 4bfe ac3c 6887 b53e 27d2 853e 8ce3 043e
000003c0: 75e4 83be b106 033f 9fe2 ee3d 38b0 50be
000003d0: d4f8 103c 4c4b 8cbd 0a06 9fbe a34b 933d
000003e0: d272 55be 5047 023f 6454 69be b24c 73bd
000003f0: f23e bebd 2724 993c dce2 de3d f5f7 1dbe

mlp_extractor.policy_net.0.bias f4 [64]
0.005675679 0.0006775954 0.06330126 0.010336617 -0.038817387 0.025369085 0.08294138 0.08728709
0.019070966 0.10601506 0.030498447 0.12236088 -0.061630655 -0.020583464 0.006129187 -0.08101029
-0.061563198 -0.009890291 -0.053637132 0.14087762 -0.013820416 -0.036613267 -0.06480878 0.042505644
-0.057772085 -0.106167555 -0.1183191 -0.048797168 -0.0051577417 0.04262787 -0.043531574 0.030234534
-0.027755484 0.07279583 -0.059078887 -0.038432524 -0.032507088 -0.1110108 0.008765385 -0.0321103
-0.09376067 -0.059894394 -0.06356544 0.062240403 0.05434561 -0.045928724 0.010331252 0.103887066
-0.015644254 -0.11414569 0.032439284 -0.111126035 -0.10621452 0.052941833 0.020085966 0.06760085
-0.03476002 0.010290651 0.15017773 0.050721444 -0.04734947 0.02250502 -0.061687432 -0.08965511
00000000: 0cfb b93b a8a0 313a 17a4 813d ea5a 293c
00000010: fbfe 1ebd d4d2 cf3c 2cdd a93d 93c3 b23d
00000020: b73a 9c3c 6c1e d93d e1d7 f93c 5798 fa3d
00000030: 6d70 7cbd a79e a8bc 59d7 c83b b9e8 a5bd
00000040: b129 7cbd e30a 22bc 9cb2 5bbd 3942 103e
00000050: 076f 62bc cbf7 15bd 77ba 84bd 661a 2e3d
00000060: 6ca2 6cbd 606e d9bd 4951 f2bd 8adf 47bd
00000070: 4602 a9bb 909a 2e3d 2a4e 32bd 6aae f73c
00000080: 785f e3bc fb15 953d b4fc 71bd 6c6b 1dbd
00000090: 2726 05bd a159 e3bd b09c 0f3c 1786 03bd
000000a0: 9805 c0bd d353 75bd 992e 82bd cbef 7e3d
000000b0: 8199 5e3d c21f 3cbd 6944 293c bec2 d43d
000000c0: 6128 80bc 37c5 e9bd 0edf 043d 0c96 e3bd
000000d0: 0087 d9bd 89d9 583d 538b a43c 5072 8a3d
000000e0: 8660 0ebd 1e9a 283c 31c8 193e 4ac1 4f3d
000000f0: 85f1 41bd 735c b83c f6ab 7cbd 199d b7bd

mlp_extractor.policy_net.2.weight f4 [64, 64]
0.26854745 0.19607438 0.46537068 -0.26152688 -0.12348727 -0.13812712 0.2466509 -0.037141547
0.34109995 0.27342582 -0.2182783 -0.33994153 0.411172 0.005812446 0.13657308 0.038299125
0.00992257 0.48776495 0.082805015 -0.047125682 0.7032323 0.16112009 0.09264708 0.63624483
0.0743257 -0.09077358 0.004280653 -0.08635405 0.03576237 -0.12711015 0.05544521 0.11944556
0.22963871 -0.079470165 0.57107484 -0.10694637 0.13254644 0.34041715 0.3291964 0.12171809
0.114123106 0.30439976 0.23907451 -0.5221654 0.5783193 -0.2143667 -0.19087878 -0.030725697
0.20193985 0.021614827 -0.25438833 -0.18984485 -0.40191227 0.46778208 -0.19990866 -0.16579682
-0.34640282 -0.2872153 -0.3233598 -0.51410526 -0.060717374 0.43699017 0.11053321 -0.2668585
-0.10812186 0.086839505 -0.033279672 -0.34537992 -0.14022177 -0.18052661 -0.07336666 0.53306514
0.11084531 0.07584282 -0.104870245 -0.21479978 -0.113477096 0.23615898 0.302592 -0.07551631
0.2677991 0.18479314 -0.012541795 0.04891919 -0.20653482 0.13289718 0.2162646 0.14647467
-0.21404082 -0.08808957 0.20276067 -0.23605582 -0.08572022 -0.10173636 0.038509976 0.4647937
0.18010281 0.24860111 0.34937498 0.18012911 0.046811122 0.21772702 -0.0052280356 -0.05848509
0.3483707 0.0029543247 0.28811312 -0.44519213 -0.038515825 -0.1459988 -0.22406939 0.099149235
0.22114506 0.05544843 0.11848973 0.37539154 -0.29230538 -0.42748046 -0.17771643 -0.22383551
0.017107403 0.084774256 0.08712739 0.5034079 0.039390028 0.095150635 -0.021645274 0.12084832
-0.25620002 -0.24616347 -0.23127489 0.020756762 -0.1384178 0.11371183 -0.23089461 0.008192041
0.09285019 -0.109828286 -0.376547 -0.20551081 0.35010558 0.11142797 -0.11512777 -0.27115557
0.08555514 -0.07605992 0.17310786 -0.024060724 -0.11291647 -0.059116192 -0.050962005 -0.104790136
0.12611938 0.08874235 -0.053347837 0.06878736 0.30395472 -0.03262173 0.335112 -0.07898306
-0.17741306 0.61164147 0.052863814 0.06727277 -0.21628918 0.04442101 0.12319308 0.1441987
-0.22816886 0.22030577 0.05036288 -0.0023386504 0.09618844 0.057572402 0.000911873 -0.2357838
-0.18766499 -0.37870878 -0.17387888 0.12645818 0.11892524 -0.14080307 -0.108831786 -0.23493348
-0.05545987 -0.06304093 0.027980894 0.14210215 0.18615095 -0.22308022 0.1563347 0.13193028
-0.08142222 -0.08640877 0.07394365 0.020037435 0.16521744 0.09940693 -0.044579092 -0.16492325
0.09912385 0.0036986133 0.049138736 -0.15828231 0.33267596 0.06232511 0.2079358 0.023197496
0.09846186 -0.06139707 0.14680202 -0.09080742 -0.13485472 0.26024282 0.17541406 0.06097548
-0.29458156 -0.1724704 0.41880816 -0.098668344 0.1777315 -0.33299232 -0.1553285 0.029279113
0.17405228 0.0024945524 -0.023069965 0.033313945 -0.066480845 -0.35768637 -0.17820829 -0.092200704
-0.102937154 0.10733981 0.11951533 0.15601066 -0.06631282 -0.22243331 -0.37538046 -0.3589506
-0.43878177 0.16719802 -0.19642366 -0.036464173 -0.059983306 -0.27735162 -0.14365993 0.14510465
0.06800883 -0.04610812 -0.20804924 -0.02495072 0.10840041 0.45577955 0.19108261 0.1785313
00000000: 0d7f 893e b9c7 483e 1145 ee3e dae6 85be
00000010: e5e6 fcbd 3271 0dbe 0e92 7c3e bc21 18bd
00000020: a7a4 ae3e 78fe 8b3e 5984 5fbe d10c aebe
00000030: 2385 d23e 5576 be3b d0d9 0b3e 8bdf 1c3d
00000040: 4692 223c 54bc f93e ad95 a93d dc06 41bd
00000050: 0807 343f aafc 243e c1bd bd3d f1e0 223f
00000060: 1338 983d 80e7 b9bd b844 8c3b 64da b0bd
00000070: 907b 123d 2a29 02be 841a 633d e09f f43d
00000080: 6926 6b3e 41c1 a2bd f631 123f b306 dbbd
00000090: 41ba 073e 284b ae3e 6e8c a83e 5547 f93d
000000a0: 60b9 e93d 49da 9b3e f3cf 743e a2ac 05bf
000000b0: bc0c 143f f282 5bbe ba75 43be 75b4 fbbc
000000c0: 52c9 4e3e 9411 b13c 303f 82be b066 42be
000000d0: 72c7 cdbe 2281 ef3e dbb4 4cbe a4c6 29be
000000e0: b65b b1be e20d 93be 6a8f a5be 679c 03bf
000000f0: c8b2 78bd 2dbd df3e 3c5f e23d ada1 88be
00000100: fe6e ddbd e9d8 b13d 4450 08bd a3d5 b0be
00000110: 4c96 0fbe f8db 38be 4241 96bd f576 083f
00000120: de02 e33d 7b53 9b3d 36c6 d6bd 79f4 5bbe
00000130: ae66 e8bd a9d3 713e 57ed 9a3e 4ca8 9abd
00000140: f71c 893e 6a3a 3d3e 1a7c 4dbc 7d5f 483d
00000150: dd7d 53be 3316 083e 7874 5d3e 75fd 153e
00000160: 842d 5bbe 4e68 b4bd 7ea0 4f3e 9eb8 71be
00000170: 158e afbd 275b d0bd a3bc 1d3d 71f9 ed3e
00000180: df6c 383e 4a91 7e3e 47e1 b23e c473 383e
00000190: 05bd 3f3d d5f3 5e3e f14f abbb 108e 6fbd
000001a0: a55d b23e 589d 413b 9083 933e 39f0 e3be
000001b0: c5c2 1dbd b680 15be 7272 65be c10e cb3d
000001c0: da73 623e e51d 633d beaa f23d 5233 c03e
000001d0: 0da9 95be b8de dabe 4cfb 35be 2335 65be
000001e0: d324 8c3c 209e ad3d d86f b23d 57df 003f
000001f0: 7057 213d 56de c23d 6e51 b1bc 537f f73d
00000200: a62c 83be 4712 7cbe 53d3 6cbe 160a aa3c
00000210: 65bd 0dbe bfe1 e83d a36f 6cbe e937 063c
00000220: 3e28 be3d a7ed e0bd c5ca c0be 6d71 52be
00000230: 0a41 b33e 5934 e43d 1cc8 ebbd e7d4 8abe
00000240: 8937 af3d 4ec5 9bbd 3043 313e ff1a c5bc
00000250: c040 e7bd d223 72bd 89bd 50bd 369c d6bd
00000260: 7025 013e 8dbe b53d 4383 5abd 63e0 8c3d
00000270: f49f 9b3e 5d9e 05bd cd93 ab3e dfc1 a1bd
00000280: c5ab 35be 8994 1c3f ba87 583d 4ec6 893d
00000290: e97a 5dbe cef2 353d a74c fc3d d3a8 133e
000002a0: 19a5 69be d697 613e 4f49 4e3d 0b44 19bb
000002b0: 72fe c43d 0ad1 6b3d c30a 6f3a 4f71 71be
000002c0: 402b 40be 1ee6 c1be 4e0d 32be 417e 013e
000002d0: 148f f33d ae2e 10be 33e3 debd 6792 70be
000002e0: e329 63bd 9a1b 81bd 3038 e53c 3a83 113e
000002f0: 5b9e 3e3e 246f 64be 3416 203e bb18 073e
00000300: b1c0 a6bd 15f7 b0bd c56f 973d 8c25 a43c
00000310: c32e 293e dc95 cb3d 9198 36bd a4e1 28be
00000320: 7201 cb3d 6f64 723b b345 493d c214 22be
00000330: 8154 aa3e 9d48 7f3d 1fed 543e ad08 be3c
00000340: 5fa6 c93d 7e7b 7bbd 4553 163e 3ef9 b9bd
00000350: 5b17 0abe 8c3e 853e be9f 333e 6dc1 793d
00000360: 65d3 96be 159c 30be 066e d63e a112 cabd
00000370: 3fff 353e f87d aabe 6f0e 1fbe c0da ef3c
00000380: c33a 323e a57b 233b 39fd bcbc 3474 083d
00000390: 1c27 88bd ab22 b7be 3c7c 36be b9d3 bcbd
000003a0: b7d0 d2bd f9d4 db3d 74c4 f43d 42c1 1f3e
000003b0: 04cf 87bd 8fc5 63be de31 c0be 5fc8 b7be
000003c0: 01a8 e0be f535 2b3e 4923 49be 755b 15bd
000003d0: 0eb1 75bd 0801 8ebe 971b 13be 5096 143e
000003e0: 3748 8b3d dedb 3cbd dc0a 55be 7465 ccbc
000003f0: 0901 de3d f05b e93e 29ab 433e e9d0 363e

mlp_extractor.policy_net.2.bias f4 [64]
-0.050385874 -0.04671586 -0.013177301 -0.04768699 0.030815566 0.054489933 -0.012721803 -0.025522381
-0.05942011 -0.022420947 0.024762414 0.055678625 -0.05024953 0.028926766 -0.023555743 0.031190155
-0.004778793 -0.021051724 0.068227306 -0.072866015 0.011371542 -0.01656414 0.029353661 -0.0852523
-0.16280508 -0.04727666 0.01807031 -0.007042608 0.039359853 0.0048061996 -0.032018594 -0.031206042
-0.007462149 -0.054877643 0.10787386 -0.08801029 0.019787705 0.004705625 -0.009650224 -0.02819552
0.018274255 -0.029901758 -0.0122490665 0.046352044 0.052038487 -0.023360368 0.04124237 0.014231732
0.038219314 -0.014646699 -0.029940382 -0.06107112 0.05823886 0.0064840233 -0.03015218 -0.016885592
0.005569084 -0.0837597 -0.06706928 -0.0055155987 -0.044457212 0.051325206 0.034946408 0.03119732
00000000: 6b61 4ebd 2159 3fbd 9be5 57bc 6f53 43bd
00000010: ed70 fc3c d630 5f3d 1c6f 50bc 5014 d1bc
00000020: 8062 73bd 22ac b7bc 8cda ca3c 450f 643d
00000030: 73d2 4dbd d3f7 ec3c f9f7 c0bc 7f82 ff3c
00000040: 6c97 9cbb aa74 acbc c2ba 8b3d c73a 95bd
00000050: b44f 3a3c 85b1 87bc 1777 f03c c298 aebd
00000060: 60b6 26be 2ca5 41bd 3008 943c aec5 e6bb
00000070: cc37 213d 537d 9d3b ee25 03bd d0a3 ffbc
00000080: 0b85 f4bb 61c7 60bd f8ec dc3d bd3e b4bd
00000090: d319 a23c a531 9a3b f91b 1ebc 4bfa e6bc
000000a0: e4b3 953c 88f4 f4bc 4fb0 48bc a4db 3d3d
000000b0: 4f26 553d 3e5e bfbc c2ed 283d 362c 693c
000000c0: db8b 1c3d b5f8 6fbc 8845 f5bc b625 7abd
000000d0: df8b 6e3d ee77 d43b b401 f7bc a753 8abc
000000e0: dd7c b63b 358a abbd 9e5b 89bd 32bc b4bb
000000f0: c418 36bd 613a 523d f723 0f3d 8691 ff3c

action_net.weight f4 [2, 64]
0.22276174 0.02007835 -0.04400971 -0.09227479 -0.013391333 0.06676934 0.018586315 -0.023097202
-0.053469233 0.0033460874 0.017426074 0.031132003 -0.06546748 0.11837311 -0.047127143 0.041405868
-0.11206238 -0.0064997603 0.08656781 -0.0028504434 -0.07093509 0.01948026 0.04805925 -0.023090456
-0.017734097 -0.006600077 0.05554232 0.030549293 0.043470286 0.05047104 0.0014005244 -0.013515036
-0.018081445 -0.076244615 0.031790096 -0.020621674 -0.09061965 -0.018116824 -0.049376678 -0.07021578
0.020250779 -0.05015734 0.08111055 -0.03028996 -0.0011020731 -0.10641848 -0.0006494979 -0.042634804
-0.08705333 -0.007507946 0.008920489 -0.039909273 0.06232362 -0.016675051 -0.04235082 0.02254118
0.008942154 -0.02279897 -0.09956834 -0.044904023 -0.005677373 0.011843378 0.008869052 -0.04163147
-0.20693885 0.19900683 0.0054185768 0.0519582 0.033990074 0.10841991 0.009306354 -0.036633417
0.0033909632 0.07530163 -0.089065306 -0.10640199 0.06624862 0.038585268 0.03021489 -0.082728386
-0.12398733 0.0528098 0.017835207 -0.050273526 0.01784715 0.11441789 -0.0133939795 -0.036472168
-0.009929542 -0.062496044 -0.026951533 -0.016518855 -0.0076291226 0.04339177 0.020792723 0.10770991
-0.0059287744 0.025201052 -0.028798038 0.010454996 0.0069128363 0.05341361 0.15120038 -0.037084736
-0.051333882 -0.04033669 0.13186073 -0.1383511 0.0081378585 -0.14289913 -0.01955009 -0.006354843
-0.2279222 0.03203673 -0.062403966 0.018620694 0.14678606 -0.10677151 -0.01739374 -0.046303697
-0.0295453 -0.057820965 -0.05551857 0.034641813 0.12773348 -0.024529304 -0.16602023 -0.13987257
00000000: a71b 643e 5a7b a43c 8743 34bd 91fa bcbd
00000010: 5267 5bbc 5dbe 883d 5442 983c 5836 bdbc
00000020: 8e02 5bbd 084a 5b3b 20c1 8e3c 8b08 ff3c
00000030: d013 86bd 9a6d f23d 6408 41bd 3399 293d
00000040: f680 e5bd f1fb d4bb 774a b13d 81ce 3abb
00000050: 6b46 91bd 1195 9f3c c7d9 443d 3228 bdbc
00000060: 1947 91bc 7545 d8bb 5880 633d 8342 fa3c
00000070: e60d 323d b9ba 4e3d cd91 b73a 2b6e 5dbc
00000080: 8a1f 94bc 2326 9cbd 5536 023d c9ee a8bc
00000090: cc96 b9bd bc69 94bc 333f 4abd 4acd 8fbd
000000a0: f6e4 a53c c871 4dbd 4a1d a63d a622 f8bc
000000b0: 7073 90ba eff1 d9bd 1143 2aba d5a1 2ebd
000000c0: 0449 b2bd 3705 f6bb 3e27 123c e877 23bd
000000d0: 0d47 7f3d 1e9a 88bc 0e78 2dbd 48a8 b83c
000000e0: 1d82 123c e8c4 babc 7cea cbbd 48ed 37bd
000000f0: 4209 babb ba0a 423c 804f 113c c385 2abd
00000100: c7e7 53be 72c8 4b3e 518e b13b 1fd2 543d
00000110: 2d39 0b3d 420b de3d ae79 183c ec0c 16bd
00000120: ec3a 5e3b be37 9a3d df67 b6bd 49e9 d9bd
00000130: 5bad 873d 960b 1e3d 3885 f73c 806d a9bd
00000140: 12ed fdbd 174f 583d 241b 923c 9deb 4dbd
00000150: 3034 923c ed53 ea3d 6c72 5bbc d763 15bd
00000160: 85af 22bc dafb 7fbd 76c9 dcbc 8d52 87bc
00000170: b8fd f9bb 92bb 313d 8055 aa3c 0397 dc3d
00000180: 2a46 c2bb 7072 ce3c dde9 ebbc 6e4b 2b3c
00000190: 1385 e23b 3bc8 5a3d 46d4 1a3e 2ae6 17bd
000001a0: 7a43 52bd 1638 25bd 8006 073e e9ab 0dbe
000001b0: a754 053c 2654 12be 8327 a0bc 493c d0bb
000001c0: 7064 69be f238 033d 4d9b 7fbd 6d8a 983c
000001d0: 164f 163e 05ab dabd 517d 8ebc f2a8 3dbd
000001e0: fc08 f2bc add5 6cbd 7167 63bd 93e4 0d3d
000001f0: 91cc 023e aef1 c8bc 3501 2abe c13a 0fbe

action_net.bias f4 [2]
0.06580824 -0.040978324
00000000: 78c6 863d e3d8 27bd
